course2.pth (torch, 2256 bytes, 3 tensors)

input_to_hidden_layer.weight f4 [8, 2]
0	0xbea5f2a9	-0.32411698
1	0x3f355c83	0.70844287
2	0x3f5b7260	0.857214
3	0x3f5a89a5	0.8536628
4	0xbf201c25	-0.62542945
5	0xbec20ed6	-0.37901944
6	0xbeda6ca6	-0.42661017
7	0x3edd39ea	0.43208247
8	0xbd9e1dc9	-0.07720525
9	0x3f1c4a89	0.6105123
10	0xbeee0493	-0.46487865
11	0xbf15184b	-0.58240193
12	0x3e104057	0.14087044
13	0xbe2e4911	-0.1702006
14	0xbdd475f0	-0.10374057
15	0x3dd61825	0.10453824

input_to_hidden_layer.bias f4 [8]
0	0x3ee4c3ca	0.44680625
1	0x3ecc074a	0.3984931
2	0x3f009c88	0.5023885
3	0xbf2d42a5	-0.67679816
4	0x3e5cfe6e	0.21581432
5	0xbf0e5d09	-0.5561071
6	0xbecfd7b5	-0.4059426
7	0x3f0d3580	0.5515976

hidden_to_output_layer.weight f4 [1, 8]
0	0x3e4d05f5	0.20021804
1	0x3f6e65e1	0.93124205
2	0xbd7a4f90	-0.061111033
3	0xbe62bead	-0.2214305
4	0x3eca879e	0.39556593
5	0x3e4c8ad6	0.19974837
6	0xbe1d5169	-0.15363087
7	0x3e7f7301	0.24946214
